…
        "model.add(Dense(512, activation=\"relu\"))\n",
        "model.add(Dropout(0.5))\n",
        "model.add(Dense(7, activation = \"softmax\"))\n",
        " \n",
        "model.summary()"
      ],
      "execution_count": 5,
      "outputs": [
        {
          "output_type": "stream",
          "text": [
            "Model: \"sequential\"\n",
            "_________________________________________________________________\n",
            "Layer (type)                 Output Shape              Param #   \n",
            "=================================================================\n",
            "conv_lst_m2d (ConvLSTM2D)    (None, 16, 31, 31, 32)    40448     \n",
            "_________________________________________________________________\n",
            "batch_normalization (BatchNo (None, 16, 31, 31, 32)    128       \n",
            "_________________________________________________________________\n",
            "activation (Activation)      (None, 16, 31, 31, 32)    0         \n",
            "_________________________________________________________________\n",
            "conv_lst_m2d_1 (ConvLSTM2D)  (None, 16, 15, 15, 32)    73856     \n",
            "_________________________________________________________________\n",
            "batch_normalization_1 (Batch (None, 16, 15, 15, 32)    128       \n",
            "_________________________________________________________________\n",
            "activation_1 (Activation)    (None, 16, 15, 15, 32)    0         \n",
            "_________________________________________________________________\n",
            "conv_lst_m2d_2 (ConvLSTM2D)  (None, 16, 7, 7, 64)      221440    \n",
            "_________________________________________________________________\n",
            "batch_normalization_2 (Batch (None, 16, 7, 7, 64)      256       \n",
            "_________________________________________________________________\n",
            "activation_2 (Activation)    (None, 16, 7, 7, 64)      0         \n",
            "_________________________________________________________________\n",
            "conv_lst_m2d_3 (ConvLSTM2D)  (None, 3, 3, 128)         885248    \n",
            "_________________________________________________________________\n",
            "batch_normalization_3 (Batch (None, 3, 3, 128)         512       \n",
            "_________________________________________________________________\n",
            "activation_3 (Activation)    (None, 3, 3, 128)         0         \n",
            "_________________________________________________________________\n",
            "flatten (Flatten)            (None, 1152)              0         \n",
            "_________________________________________________________________\n",
            "dense (Dense)                (None, 512)               590336    \n",
            "_________________________________________________________________\n",
            "dropout (Dropout)            (None, 512)               0         \n",
            "_________________________________________________________________\n",
            "dense_1 (Dense)              (None, 7)                 3591      \n",
            "=================================================================\n",
            "Total params: 1,815,943\n",
            "Trainable params: 1,815,431\n",
            "Non-trainable params: 512\n",
            "_________________________________________________________________\n"
          ],
          "name": "stdout"
        }
      ]
    },
    {
      "cell_type": "code",
…
